socproject/best_model.pth (torch, 7714 bytes, 17 tensors)

lstm1.weight_ih_l0 f4 [16, 4]
00000000: f98c 4dbe b66c 4a3e e0fb cfbe 5f9b 76be
00000010: 86a2 3dbd 6c41 9a3e 8ddc e13e d330 9e3e
00000020: 187f c93e fb11 9dbe c48c 963e 2aa7 523e
00000030: 14ae 683e 3c7c ac3e 9cfb c7be 2eae da3e
00000040: f3b2 fbbe 0010 df3e fdaa a93e f23d f6bc
00000050: c4cf f23d 7b7d 183e ce73 8a3e 9037 033e
00000060: e298 82be 352c 993e d1ff 223e c047 4abe
00000070: b63f fdb9 8e96 78bd 2915 ca3e 1011 eebe
00000080: 5ee5 203d 6177 a43e e3cb 95be 2650 d83e
00000090: b8d7 f7bd 7289 423e d96b 773e f28d bebe
000000a0: 1659 97be cd43 2dbe d314 d93e 6dec 673e
000000b0: 1dd3 8bbc c567 c73e e934 4f3e 6fce 0a3e
000000c0: f71b 6cbe 1b8c 8e3d c916 adbe 2eed 8fbd
000000d0: d90e 923e 7394 843e 203c f2be cf51 df3d
000000e0: a473 cb3e e8d8 9cbe 5f6d a53e e3bf d3be
000000f0: b99d 9f3e 5fcf c0be d980 c13d 1963 8abe
-0.20073308 0.19768032 -0.40621853 -0.24082707 -0.046297573 0.30128038 0.4411358 0.30896625
0.39354777 -0.3067778 0.2940427 0.2057158 0.22722656 0.33688533 -0.3905915 0.42711014
-0.49159965 0.43566895 0.33138266 -0.030058835 0.118560344 0.14891617 0.27041477 0.12814164
-0.25507265 0.2991654 0.15917899 -0.19753933 -0.0004830339 -0.060690455 0.3946927 -0.46497393
0.03928124 0.3212233 -0.29257116 0.42248648 -0.12101692 0.18997744 0.24162234 -0.3721767
-0.29560155 -0.16920395 0.423987 0.22648783 -0.01706844 0.38946357 0.20235027 0.1355531
-0.23057543 0.06960317 -0.33806446 -0.0702766 0.28526953 0.25894508 -0.47311497 0.109042756
0.39736664 -0.30634236 0.32310006 -0.41357335 0.3117502 -0.37658212 0.09448404 -0.2702873

lstm1.weight_hh_l0 f4 [16, 4]
00000000: d5ad 80bd 7465 91be 3651 b43e 161d e9be
00000010: 9166 f93e 4a99 db3e 26a1 c8be a977 9d3e
00000020: b2d5 a83e ec84 5d3e 52cf efbe 3bf9 42be
00000030: 7fb2 68be 12a2 a23e 3a10 8d3e bfe5 bc3e
00000040: 01b8 fb3d 0d40 423d ce8b fd3d ad84 55bd
00000050: 93d3 f73c 570f 70be 5830 af3e 1429 90be
00000060: f3e8 cfbd bc4d a83e 9659 13bd d1c6 fcbe
00000070: ac8f b43e abee 723e 9c7e 41be ca54 e93e
00000080: c972 393c 319c 1abd ab41 ce3d e40e cc3e
00000090: d233 f13e c408 0c3e bd52 ee3d 8d7e a63d
000000a0: a0bd 80be 1018 0bbd bd24 b2be 736e 163e
000000b0: e8fe 423e 26f0 55be 9ad5 5ebd a8ee b0be
000000c0: c947 323d 13db ae3e 04ce bdbd af9f db3d
000000d0: 33e0 8ebe 15a5 c5be 9c20 b03e 6226 bfbe
000000e0: 2f67 e4be 93d6 bb3d d8dd 2e3e 3596 3ebe
000000f0: 5dce 05bd 9962 85bc dacc 763e ba9f a1be
-0.06283156 -0.28397715 0.3521821 -0.45530003 0.48711064 0.42890388 -0.39185447 0.30755356
0.32975537 0.21632737 -0.4683786 -0.19040386 -0.22724341 0.31764275 0.27551442 0.36894032
0.12290955 0.047424365 0.12380181 -0.052128483 0.030252254 -0.23443352 0.3421657 -0.2815634
-0.101518534 0.32871807 -0.035974108 -0.49370435 0.35265863 0.23723857 -0.18895954 0.455725
0.011318871 -0.037746612 0.10071119 0.3985511 0.47109848 0.13675219 0.11636875 0.081296064
-0.25144672 -0.033958495 -0.34793654 0.1469057 0.19042552 -0.2089239 -0.054402925 -0.3455708
0.04352549 0.34151515 -0.0926781 0.107238166 -0.27905425 -0.3860251 0.3439988 -0.3733397
-0.44609973 0.09171786 0.17076814 -0.18611987 -0.032667506 -0.016282367 0.24101582 -0.31567174

lstm1.bias_ih_l0 f4 [16]
00000000: d364 183e 4504 6a3e d567 9cbe e6e7 e83e
00000010: 53db 64be d579 e7be 1845 823e 1343 013f
00000020: 6e16 213e d1f2 6fbd d0f0 8f3e 75d1 fbbe
00000030: aecd f4be 5317 0d3e 0bbb cdbe 369e f93e
0.14882211 0.22853191 -0.30547968 0.45489424 -0.2234929 -0.45210138 0.2544334 0.5049297
0.15731212 -0.058581177 0.28113413 -0.4918324 -0.4781317 0.13778429 -0.40181765 0.48753518

lstm1.bias_hh_l0 f4 [16]
00000000: d96a 293e 87e0 a73e de6b 123e 1c24 32be
00000010: 08d0 2e3d 6f2b d2be 0793 07be 1b00 293e
00000020: b9cf e6bd 7840 8ebd bfbf 703e e2ea cabe
00000030: 5ff4 20be 7086 143d ab45 773e 20fe d63d
0.16544665 0.32788488 0.1429896 -0.17396587 0.042678863 -0.41048762 -0.1323968 0.16503946
-0.11270089 -0.0694589 0.23510645 -0.39632326 -0.1571822 0.036261022 0.2414767 0.10497689

lstm1.weight_ih_l0_reverse f4 [16, 4]
00000000: 6c45 2e3e c604 913d 5821 06be c58e ed3e
00000010: 62ca 85be 28c3 663d 1d83 b93d f44e 663e
00000020: de4f f53c d3b0 c7be 5bec 5c3d 4f7e fdbe
00000030: 3c21 94be 4602 a53d 4048 e73e f2f3 063e
00000040: 0107 8bbe 7f75 263d bab9 743e 164e ae3e
00000050: 56fb a9be 3b1c 2a3e 25eb e83e 4a1d 4c3e
00000060: db31 743e e44a b33c 8934 5cbe a368 8fbe
00000070: 33ec b93e c9b6 2e3e f2bc a9be befe d33e
00000080: ed79 a9be f23a ec3d 7e9c c03e eff3 81bd
00000090: de04 ebbd eea8 f93e 378a 0abe 6de4 4dbd
000000a0: fa7d 6bbd a196 94bd 8400 a1be 6495 8dbe
000000b0: d425 c33c 68ef a13e 122f 15be 3ca9 49bd
000000c0: d62b a13d 12c8 e5be 79f7 8b3d 57c7 2d3d
000000d0: c3db 9f3c ab01 2a3e 470d 0f3e c7cf d6be
000000e0: 45d5 cdbe c626 923e 1eae afbe 89eb 34be
000000f0: e024 f03e 3b30 55be 64b9 8f3d fbc9 bcbe
0.1701867 0.070809886 -0.13098657 0.46397987 -0.26130968 0.05633846 0.09058211 0.22491056
0.02994531 -0.39002094 0.053936344 -0.49510428 -0.28931606 0.08057074 0.4517231 0.13178995
-0.2715378 0.040639397 0.23898974 0.3404395 -0.33199567 0.16612332 0.454919 0.19933048
0.23847143 0.021886297 -0.21504416 -0.2800952 0.36313018 0.17061915 -0.33151966 0.4140529
-0.33100834 0.115346804 0.37619394 -0.06345355 -0.11475538 0.48761696 -0.13529287 -0.050266672
-0.057493187 -0.07255293 -0.31445706 -0.27653039 0.023821749 0.31627965 -0.14568737 -0.04923366
0.07869689 -0.44879204 0.06834311 0.042426433 0.01951397 0.16602199 0.13969909 -0.41955397
-0.40201774 0.28545207 -0.34312528 -0.17667975 0.46903133 -0.2081918 0.07017782 -0.3687285

lstm1.weight_hh_l0_reverse f4 [16, 4]
00000000: 29f6 653e bb4e 93bc c492 af3e 81bd e9bc
00000010: 8080 b2be 0c5d b33e d9d3 5b3e d7a2 a93e
00000020: f074 f13e d655 89be b3f5 7ebd 58c5 dfbe
00000030: c263 02be fecb 993e c037 f03c a7ba 6c3e
00000040: d180 bc3c e618 cbbe 2d67 c8be 2363 8b3e
00000050: 689a ca3e 4b6b 0a3e e0d0 ff3e c164 d53e
00000060: 854a c13e 0989 d73d d66f d63e 4c61 bcbe
00000070: 0576 2abd 15c1 c63c f7cf f43e 68e4 a8be
00000080: e96f ddbe a343 b6be b12d 3e3e 1dee 3d3e
00000090: 025a 8c3e e175 c83e bf00 49be adcd 7b3d
000000a0: 7674 f6bd f301 79be 9e9d b6be b535 933e
000000b0: a4f4 f0bd 0ac8 cebe 3e13 6fbe 211d abbd
000000c0: 5bd2 4e3e 9fd9 a3be 3f69 5cbe 948c b63e
000000d0: 33db 8abe e5a2 00bf 2d93 acbe 420c a9be
000000e0: 0b7d 0ebe 189a a13d cb75 5c3e e4c7 f0be
000000f0: 1e40 4d3e 3660 d4be 3191 1e3d d332 8a3e
0.22457184 -0.017981878 0.3429166 -0.028532745 -0.34863663 0.35031927 0.21467532 0.3313205
0.4715953 -0.268233 -0.062246036 -0.4370525 -0.12733367 0.30038446 0.029323459 0.23118077
0.023010643 -0.39667434 -0.39141217 0.27224073 0.39570928 0.13517492 0.49964046 0.41678432
0.37752166 0.10524184 0.418822 -0.36792982 -0.04161646 0.02426199 0.47814915 -0.3298676
-0.43249443 -0.35598478 0.18572117 0.18547864 0.2741242 0.39152434 -0.19629191 0.061475445
-0.12033932 -0.2431715 -0.35667127 0.28751913 -0.117654115 -0.40386993 -0.23347184 -0.08355165
0.20197432 -0.3200197 -0.21524523 0.35654128 -0.2712036 -0.5024856 -0.33706036 -0.33017164
-0.13914888 0.07890719 0.2152931 -0.47027504 0.2004399 -0.41479653 0.038712684 0.269919

lstm1.bias_ih_l0_reverse f4 [16]
00000000: f8fb 373e 40e1 32be f4e1 f7bd ee64 933e
00000010: 2195 ba3d 8cba 2cbe ce9e ffbe c18a bebe
00000020: 2139 db3e 2be1 36be 01ce a73c 3af2 e23c
00000030: 4987 58be ca81 8d3e 2c7a 01bf 2991 983d
0.17967212 -0.17468739 -0.12103644 0.2878794 0.09110475 -0.16868037 -0.49925846 -0.37215236
0.42817023 -0.17859332 0.020483973 0.027703393 -0.21145357 0.27638084 -0.50577044 0.07449562

lstm1.bias_hh_l0_reverse f4 [16]
00000000: 7f26 b23e dbf8 3bbd 5412 b63e 09c2 d03e
00000010: 7d52 59bd 27c3 56be b17d 2a3e 20a0 af3e
00000020: 1dab f73e b3fd f33e c84d b63e 3e36 9bbd
00000030: ce91 cdbe 1c6b a33e fc72 0f3d bc21 dc3e
0.34794995 -0.045891624 0.35560858 0.40773037 -0.053057183 -0.20972882 0.1664951 0.34301853
0.48372737 0.47654495 0.35606217 -0.07578705 -0.40150303 0.31917655 0.035021767 0.42994487

attention.0.weight f4 [4, 8]
00000000: e9ee 35be 859d 2a3e 3f6f d8bc d164 65be
00000010: 5502 9fbc f2ed 113e 6de8 65bd 04a0 543e
00000020: 2d80 cd3c 7992 a5be f22d e93d f3f5 8dbc
00000030: 651e 9d3e b14c 80be e356 af3e a6a6 4dbe
00000040: 3f48 be3d c8e9 5d3e ae7a e0bd d57d 83be
00000050: 49f8 a9be 34f6 b7be b16d 12bd 696e e93d
00000060: e539 923e 18f0 543d 9b52 8cbd e88b 8abe
00000070: 35b6 c2bd 4a55 c93d 2b69 99be 4af8 50bd
-0.17766918 0.16661651 -0.026420234 -0.2240174 -0.019410292 0.14250925 -0.05612986 0.20764166
0.025085533 -0.32338312 0.113857165 -0.017329192 0.30687252 -0.2505851 0.34245977 -0.20083103
0.092911236 0.21671212 -0.10960899 -0.2568194 -0.3319724 -0.35930026 -0.03574914 0.11398012
0.28559795 0.051986784 -0.06851693 -0.27059865 -0.095074095 0.09830721 -0.2996305 -0.051018037

attention.0.bias f4 [4]
00000000: bb16 063e 6767 a9be 7857 783e f935 863e
0.13094608 -0.33086702 0.24252117 0.26213053

attention.2.weight f4 [1, 4]
00000000: 8af5 dd3e 8d71 c03e c18b fa3d 5d6e d93d
0.43351394 0.37586632 0.12233687 0.10616753

feature_layers.0.weight f4 [4, 8]
00000000: b2f1 693b 48a3 833d 34df 35bc 8316 b33e
00000010: b752 a03e 5d06 50be 3716 79be 6bac 25be
00000020: 108b afbe 788e 8e3e 6d0a 863e b1e3 963e
00000030: 4ef8 91be 75ab 2abd 9537 e2bc 29a3 9ebe
00000040: 883c 93be 5249 19be 4068 2ebe 8833 1d3e
00000050: 0796 44be afa8 fb3d 3d83 22be 73ed e0bd
00000060: 0544 9abe 1585 92be 71fe debc 316c 23be
00000070: 0e64 283c 9a07 89be 375f 7e3e 0cff 34be
0.003569704 0.06427628 -0.011100579 0.34978113 0.31313106 -0.20314927 -0.2432488 -0.16179053
-0.34285784 0.2784307 0.2617983 0.2947059 -0.28509754 -0.04166742 -0.027614394 -0.30983856
-0.2875712 -0.14969376 -0.17031956 0.15351689 -0.19197856 0.12288033 -0.15870376 -0.1098279
-0.3013002 -0.2861716 -0.027220936 -0.1595924 0.010277761 -0.26763612 0.24841009 -0.17675418

feature_layers.0.bias f4 [4]
00000000: 70b9 92bd 3ba6 263d 6101 713d 04cd 7abe
-0.07164276 0.040685873 0.058839206 -0.2449227

feature_layers.3.weight f4 [2, 4]
00000000: 9637 9ebe b68b e03e 3b53 d1be d14b 133e
00000010: ff8a b83e 60ce 86be db4e e03e 3dd0 c0be
-0.30901784 0.4385659 -0.40883812 0.1438439 0.36043546 -0.26329327 0.43810162 -0.37658873

feature_layers.3.bias f4 [2]
00000000: 5281 bcbe 3bd1 6e3d
-0.36817414 0.058305006

fc.weight f4 [4, 2]
00000000: 138c a0bd 3d24 93be d382 dcbd 428c 23be
00000010: 9d30 313f 7d0e 05bf c27c cf3e 7b2a 64bd
-0.07839217 -0.28738585 -0.1076714 -0.15971473 0.69214803 -0.5197523 0.4052487 -0.055704575

fc.bias f4 [4]
00000000: 912c d03e 101d fbbd 2540 3e3e 9ccb 123e
0.40659 -0.122614026 0.18579157 0.14335483
